…
bias', 'proj_head.2.weight', 'proj_head.2.bias', 'prototypes.weight', 'local_d.block.0.weight', 'local_d.block.0.bias', 'local_d.block.2.weight', 'local_d.block.2.bias', 'local_d.block.4.weight', 'local_d.block.4.bias', 'local_d.linear_shortcut.weight', 'local_d.linear_shortcut.bias', 'global_d.block.0.weight', 'global_d.block.0.bias', 'global_d.block.2.weight', 'global_d.block.2.bias', 'global_d.block.4.weight', 'global_d.block.4.bias', 'global_d.linear_shortcut.weight', 'global_d.linear_shortcut.bias'])
model.gnn:  Encoder_Core(
  (convs): ModuleList(
    (0): GINConv(nn=Sequential(
      (0): Linear(in_features=37, out_features=32, bias=True)
      (1): ReLU()
      (2): Linear(in_features=32, out_features=32, bias=True)
    ))
    (1): GINConv(nn=Sequential(
      (0): Linear(in_features=32, out_features=32, bias=True)
      (1): ReLU()
      (2): Linear(in_features=32, out_features=32, bias=True)
    ))
    (2): GINConv(nn=Sequential(
      (0): Linear(in_features=32, out_features=32, bias=True)
      (1): ReLU()
      (2): Linear(in_features=32, out_features=32, bias=True)
    ))
    (3): GINConv(nn=Sequential(
      (0): Linear(in_features=32, out_features=32, bias=True)
      (1): ReLU()
      (2): Linear(in_features=32, out_features=32, bias=True)
    ))
    (4): GINConv(nn=Sequential(
      (0): Linear(in_features=32, out_features=32, bias=True)
      (1): ReLU()
      (2): Linear(in_features=32, out_features=32, bias=True)
    ))
  )
  (bns): ModuleList(
    (0): BatchNorm1d(32, eps=1e-05, momentum=0.1, affine=True, track_running_stats=True)
    (1): BatchNorm1d(32, eps=1e-05, momentum=0.1, affine=True, track_running_stats=True)
    (2): BatchNorm1d(32, eps=1e-05, momentum=0.1, affine=True, track_running_stats=True)
    (3): BatchNorm1d(32, eps=1e-05, momentum=0.1, affine=True, track_running_stats=True)
    (4): BatchNorm1d(32, eps=1e-05, momentum=0.1, affine=True, track_running_stats=True)
  )
  (proj_head): Sequential(
    (0): Linear(in_features=160, out_features=160, bias=True)
    (1): ReLU(inplace=True)
    (2): Linear(in_features=160, out_features=160, bias=True)
  )
)
model: 
 GNN_pregraph(
  (gnn): Encoder_Core(
    (convs): ModuleList(
      (0): GINConv(nn=Sequential(
        (0): Linear(in_features=37, out_features=32, bias=True)
        (1): ReLU()
        (2): Linear(in_features=32, out_features=32, bias=True)
      ))
      (1): GINConv(nn=Sequential(
        (0): Linear(in_features=32, out_features=32, bias=True)
        (1): ReLU()
        (2): Linear(in_features=32, out_features=32, bias=True)
      ))
      (2): GINConv(nn=Sequential(
        (0): Linear(in_features=32, out_features=32, bias=True)
        (1): ReLU()
        (2): Linear(in_features=32, out_features=32, bias=True)
      ))
      (3): GINConv(nn=Sequential(
        (0): Linear(in_features=32, out_features=32, bias=True)
        (1): ReLU()
        (2): Linear(in_features=32, out_features=32, bias=True)
      ))
      (4): GINConv(nn=Sequential(
        (0): Linear(in_features=32, out_features=32, bias=True)
        (1): ReLU()
        (2): Linear(in_features=32, out_features=32, bias=True)
      ))
    )
    (bns): ModuleList(
      (0): BatchNorm1d(32, eps=1e-05, momentum=0.1, affine=True, track_running_stats=True)
      (1): BatchNorm1d(32, eps=1e-05, momentum=0.1, affine=True, track_running_stats=True)
      (2): BatchNorm1d(32, eps=1e-05, momentum=0.1, affine=True, track_running_stats=True)
      (3): BatchNorm1d(32, eps=1e-05, momentum=0.1, affine=True, track_running_stats=True)
      (4): BatchNorm1d(32, eps=1e-05, momentum=0.1, affine=True, track_running_stats=True)
    )
    (proj_head): Sequential(
      (0): Linear(in_features=160, out_features=160, bias=True)
      (1): ReLU(inplace=True)
      (2): Linear(in_features=160, out_features=160, bias=True)
    )
  )
  (classifier): Net(
    (hidden): Linear(in_features=160, out_features=320, bias=True)
    (out): Linear(in_features=320, out_features=2, bias=True)
  )
)
model is set
optimizer parameters:  Adam (
Parameter Group 0
    amsgrad: False
    betas: (0.9, 0.999)
    eps: 1e-08
    lr: 0.01
    weight_decay: 1e-06

Parameter Group 1
    amsgrad: False
    betas: (0.9, 0.999)
    eps: 1e-08
    lr: 0.01
    weight_decay: 1e-06
)
optimizer is set
=================epoch:  1
fine-model.forward, embedding is done
…
